…
480,"elapsed":5920,"user":{"displayName":"Neo Nicholas","photoUrl":"","userId":"17512883430045220190"}},"colab":{"base_uri":"https://localhost:8080/","height":390}},"source":["NN_model.compile(loss='mean_absolute_error', optimizer='adam', metrics=['mean_absolute_error'])\n","NN_model.summary()"],"execution_count":0,"outputs":[{"output_type":"stream","text":["_________________________________________________________________\n","Layer (type)                 Output Shape              Param #   \n","=================================================================\n","dense_1 (Dense)              (None, 8)                 72        \n","_________________________________________________________________\n","dense_2 (Dense)              (None, 32)                288       \n","_________________________________________________________________\n","dense_3 (Dense)              (None, 64)                2112      \n","_________________________________________________________________\n","dense_4 (Dense)              (None, 128)               8320      \n","_________________________________________________________________\n","dense_5 (Dense)              (None, 64)                8256      \n","_________________________________________________________________\n","dense_6 (Dense)              (None, 32)                2080      \n","_________________________________________________________________\n","dense_7 (Dense)              (None, 1)                 33        \n","=================================================================\n","Total params: 21,161\n","Trainable params: 21,161\n","Non-trainable params: 0\n","_________________________________________________________________\n"],"name":"stdout"}]},{"cell_type":"code","metadata":{"id":"xRc09Go2Y0qa","colab_type":"code","colab":{}},"source":["checkpoint_name = 'Weights-{epoch:03d}--{val_loss:.
…
